section-2/flutter_app7/.dart_tool/chrome-device/Default/optimization_guide_prediction_model_downloads/772c916d-bf31-46f5-97df-38929f77002b/model.tflite (tflite, 407748 bytes, 166 tensors)

context_transformer_0/bottleneck_input/norm/add f4 [32]
0	0xbde402d8	-0.11133355
1	0x3c8791be	0.016548987
2	0x3e29115c	0.16510528
3	0x3dbd041c	0.092292994
4	0xbdade308	-0.084905684
5	0xbc03316c	-0.008007389
6	0x3e1f3668	0.15548098
7	0xbd088d29	-0.033337746
8	0x3c9520d2	0.018204127
9	0x3ce47c16	0.0278912
10	0xbd424a99	-0.047434423
11	0x3d1f5022	0.03889478
12	0x3cf65a94	0.030072488
13	0x3d32b074	0.04362531
14	0xbde03a80	-0.10948658
15	0x3de93b20	0.1138823
16	0xbc36fe22	-0.011168988
17	0xbd385d46	-0.045010827
18	0x3bef38a2	0.0073004523
19	0xbd7b5c3a	-0.06136725
20	0xbd8d4df4	-0.06899634
21	0x3d87bada	0.06627436
22	0xbd265b48	-0.040614396
23	0xbb93176a	-0.004488875
24	0xbd8b9d24	-0.068170816
25	0x3da64744	0.081190616
26	0x3c8db5d5	0.017298618
27	0x3c94b3da	0.018152166
28	0xbe145590	-0.14485765
29	0xbd1f9353	-0.03895886
30	0xbd2892b8	-0.041155547
31	0xbbc6232a	-0.0060466724

context_transformer_1/bottleneck_input/norm/add f4 [32]
0	0x3e275559	0.16341151
1	0x3e27c566	0.16383895
2	0xbce1dc40	-0.027570844
3	0x3dc0ae68	0.09408265
4	0xba5ad1e0	-0.0008347314
5	0x3d993b78	0.07482046
6	0xbdb62513	-0.0889379
7	0xbdb72792	-0.08943094
8	0x3e4fe17a	0.20300856
9	0xbe1ebf2a	-0.15502611
10	0x3e35e96a	0.17764822
11	0xbe5bf17e	-0.2147884
12	0x3e1ed726	0.1551176
13	0xbdfe3f1d	-0.12414382
14	0x3d924249	0.07141549
15	0x3e057014	0.13031036
16	0x3d8019e2	0.06254937
17	0x3e3a1387	0.18171512
18	0x3d8c71c8	0.068576396
19	0x3e2629e6	0.1622692
20	0x3d7c8abe	0.061655752
21	0x3a293ea0	0.000645617
22	0xbd750a7a	-0.059824444
23	0xbe614d44	-0.22002131
24	0x3df1a4d8	0.117990196
25	0xbd65b292	-0.0560785
26	0x3e2f652a	0.17128435
27	0xbe5013e8	-0.20320094
28	0x3e110a03	0.14163975
29	0x3e2b708c	0.16742152
30	0x3d336cb2	0.04380483
31	0xbd9c427d	-0.07629869

mention_transformer_0/bottleneck_input/norm/add f4 [32]
0	0x3d6ac534	0.057316974
1	0xbd1c8387	-0.03821137
2	0xbe074b26	-0.1321226
3	0x3e288019	0.16455115
4	0xbd7f9f1c	-0.062407598
5	0x3ce8fec6	0.028441798
6	0xbde19923	-0.11015537
7	0x3da26474	0.07929316
8	0xbc31ef72	-0.010860311
9	0x3c932790	0.0179632
10	0x3d352270	0.044222295
11	0x3e26659c	0.16249698
12	0xbda6ea0b	-0.08150109
13	0xbb79be85	-0.0038107943
14	0xbc2fdc81	-0.010733725
15	0xbe303ce8	-0.17210734
16	0x3df45339	0.11929936
17	0x3cc00f02	0.023444656
18	0xba84f996	-0.0010145183
19	0xbd8b0961	-0.06788898
20	0xbe5057be	-0.20345971
21	0xbcd80a49	-0.026372092
22	0xbdcc6c21	-0.099815615
23	0x3e1efa1a	0.15525094
24	0x3d18dc58	0.03731951
25	0xbd8d37bc	-0.06895396
26	0xbd7941ea	-0.060853876
27	0xbe03b974	-0.12863714
28	0xbd9ceb8e	-0.07662116
29	0x3d117fd8	0.035522312
30	0x3e03a317	0.12855183
31	0xbcd80abe	-0.02637231

mention_transformer_1/bottleneck_input/norm/add f4 [32]
0	0x3d8ecaf5	0.06972305
1	0x3dc8e8fe	0.09810065
2	0xbe7d02a3	-0.24708037
3	0xbf1ccaf9	-0.6124721
4	0xbe3ec938	-0.18631446
5	0xbebd09a8	-0.3692143
6	0xbcab6984	-0.020924337
7	0xbec66adb	-0.387534
8	0xbbc83cf8	-0.0061107837
9	0xbee1f8b6	-0.44135064
10	0xbdc2f32d	-0.09519038
11	0xbf0753d9	-0.52862316
12	0xbedb38d2	-0.42816788
13	0xbd3f8c67	-0.046764757
14	0xbeafbe2f	-0.34324786
15	0xbe5391a0	-0.2066102
16	0x3e17c50e	0.14821264
17	0xbf0c8718	-0.54893637
18	0xbf01b8b5	-0.50672466
19	0x3e79e628	0.24404204
20	0x3dbcf40b	0.09226235
21	0xbea33490	-0.3187604
22	0xbec0bd86	-0.37644595
23	0xbef0a374	-0.46999705
24	0xbe438f3f	-0.19097613
25	0xbe95c752	-0.29253632
26	0xbe153276	-0.1457003
27	0x3e436704	0.19082266
28	0xbe51387a	-0.204317
29	0xbe6bb596	-0.23018488
30	0xbeebedcf	-0.4607987
31	0xbe8d25b5	-0.2756783

context_transformer_0/attention/value/add;context_transformer_0/attention/value/einsum/Einsum;context_transformer_0/attention/value/add/ReadVariableOp/resource f4 [32]
0	0xbc810b94	-0.015752591
1	0xbca8bab8	-0.020596847
2	0x3d619362	0.055072196
3	0xbe120a6e	-0.14261791
4	0xbd12de85	-0.035856742
5	0xbd677e89	-0.056517158
6	0x3d911661	0.070843466
7	0xbd00a15a	-0.031403877
8	0xbd851cb6	-0.06499617
9	0xbddad32a	-0.106848076
10	0xbe2de2c9	-0.16981043
11	0xbc1b3c29	-0.0094747925
12	0x3e4dbf13	0.2009242
13	0xbdc5505c	-0.09634468
14	0xbdf2ac30	-0.118492484
15	0x3da4a335	0.08038942
16	0x3d1b3542	0.037892587
17	0xbcf828a9	-0.030292826
18	0xbdc864bb	-0.09784838
19	0xbe02b146	-0.12762937
20	0xbd0a0de3	-0.03370465
21	0x3e6eea0d	0.23331471
22	0xbe4cbba2	-0.19993451
23	0xbcbed753	-0.023296034
24	0xbdb0aae9	-0.086263485
25	0xbc8bd2e5	-0.017068336
26	0xbd61688a	-0.055031337
27	0x3cc83fa8	0.024444416
28	0xbd8269e4	-0.06367853
29	0x3cbe5e44	0.023238309
30	0x3be2f09a	0.0069256546
31	0xbda55341	-0.0807252

context_transformer_0/bottleneck_input/norm/mul f4 [32, 32]
0	0x3db83680	0.0899477
1	0xbde3a485	-0.11115364
2	0xbd30d138	-0.043168277
3	0x3e90cbac	0.2828039
4	0x3d1e9a9d	0.03872167
5	0x3d0fa1d4	0.03506644
6	0xbda421ca	-0.08014257
7	0xbd894edd	-0.06704495
8	0x3ded9303	0.11600306
9	0xbc5d242e	-0.013497395
10	0x3d245641	0.04012132
11	0x3dcd8aa1	0.10036207
12	0xbe74622f	-0.23865579
13	0xbe1a4582	-0.15065578
14	0xbdf3a1be	-0.11896084
15	0x3e7fbeb1	0.24975087
16	0xbe60ab15	-0.21940263
17	0x3def9113	0.116975926
18	0xbd72566c	-0.05916445
19	0x3e7276b8	0.236781
20	0xbe185c11	-0.1487887
21	0x3d53a59f	0.05167162
22	0xbd1839ee	-0.03716462
23	0xbe333157	-0.1749929
24	0x3e4ed81d	0.20199628
25	0xbde83acc	-0.113393396
26	0xbda27074	-0.07931605
27	0x3e28945d	0.16462846
28	0x3e09fa85	0.13474472
29	0x3d1eb640	0.038748026
30	0x3d88b997	0.066760235
31	0xbe34776b	-0.1762368
32	0x3d303371	0.04301781
33	0x3c5b1c51	0.01337345
34	0xbe8932f3	-0.26796684
35	0x3e27599f	0.16342781
36	0x3d5bd1e2	0.053666957
37	0x3d067332	0.032824703
38	0xbe176d9a	-0.14787903
39	0x3cee1e63	0.029067224
40	0xbe5caa63	-0.21549372
41	0xbe6249eb	-0.2209851
42	0x3e6a329b	0.22870867
43	0x3cf2d8da	0.029644419
44	0xbb8f7ff8	-0.0043792687
45	0xbe339463	-0.17537074
46	0xbe0104d9	-0.12599505
47	0xbdc1b553	-0.09458413
48	0x3e25a40b	0.16175859
49	0x3eba6fac	0.36413324
50	0xbdf4113d	-0.119173504
51	0xbe937451	-0.2879968
52	0xbe85cf97	-0.2613494
53	0x3e26f10e	0.16302893
54	0xbe920081	-0.2851601
55	0xbe7b3bf2	-0.24534586
56	0xbea0d88d	-0.31415215
57	0xbd4ebe87	-0.05047467
58	0xbe8cece1	-0.27524474
59	0xbe3a05bc	-0.1816625
60	0xbd36fef8	-0.04467675
61	0x3e2068c2	0.15664962
62	0x3c82864e	0.015933182
63	0x3e24cd31	0.160939
64	0xbedb5622	-0.42839152
65	0x3d824758	0.06361264
66	0x3e5b3c34	0.21409684
67	0xbe98eeab	-0.2986959
68	0x3e91810d	0.2841877
69	0xbc4cc274	-0.012497533
70	0xbeba35ab	-0.3636907
71	0xbec0ca2e	-0.3765425
72	0x3bac1515	0.0052515366
73	0x3cfe1265	0.03101463
74	0xbe3dd785	-0.18539245
75	0xbebf0024	-0.37304795
76	0x3e378c1e	0.17924544
77	0x3d8f683b	0.07002302
78	0xbe9eda5d	-0.31025973
79	0xbddf128f	-0.10892212
80	0xbdacf163	-0.08444478
81	0xbc2086c5	-0.009797757
82	0xbe08ee7d	-0.13372226
83	0xbe886277	-0.26637623
84	0x3d3e6741	0.04648519
85	0xbd879821	-0.06620813
86	0xbe270a93	-0.16312627
87	0x3e8c63bb	0.27419838
88	0x3e83db3e	0.25753206
89	0xbe460675	-0.193384
90	0x3f0ade52	0.54245484
91	0x3ddba292	0.10724367
92	0xbdba692b	-0.091020904
93	0xbd51390b	-0.05107979
94	0xbd061c28	-0.032741696
95	0xbd0c7b87	-0.034297492
96	0x3e52b863	0.2057815
97	0x3e552817	0.20816074
98	0xbd8eaf35	-0.06967012
99	0xbe4fa87e	-0.20279118
100	0xbdef083a	-0.11671491
101	0xbe1a85d0	-0.15090108
102	0xbe2c8403	-0.16847233
103	0xbf1eccc2	-0.62031186
104	0x3e556e46	0.20842847
105	0x3cf62fad	0.03005203
106	0x3ea9c830	0.33160543
107	0xbebaef43	-0.36510667
108	0xbd711acf	-0.058863457
109	0x3cccee78	0.025016055
110	0xbed8902b	-0.4229749
111	0x3e2dcec0	0.169734
112	0xbee12159	-0.43970755
113	0x3d72962a	0.05922524
114	0x3d83973d	0.06425331
115	0xbe0960df	-0.1341586
116	0xbd209ec0	-0.039213896
117	0xbebe3f19	-0.37157515
118	0xbe9476cb	-0.28996882
119	0x3e62485d	0.22097917
120	0xbec78af1	-0.3897319
121	0xbe7bfdc1	-0.24608518
122	0xbec7fac2	-0.390585
123	0x3d6c4ad6	0.057688557
124	0xbf0bc4ce	-0.54597175
125	0xbe9a4df5	-0.30137601
126	0x3e8d9be2	0.27657992
127	0x3e9d2016	0.30688542
128	0xbcb3a149	-0.021927493
129	0x3e3d4004	0.18481451
130	0x3e40dcb9	0.18834199
131	0xbd996dc6	-0.07491641
132	0x3ec00f3f	0.37511632
133	0xbdf7fcf6	-0.12108795
134	0x3df35c3a	0.11882825
135	0x3eab0fca	0.33410484
136	0x3dd2fe91	0.10302461
137	0xbf10eb07	-0.56608623
138	0x3ef912d8	0.4864719
139	0xbc9da75e	-0.019244846
140	0xbe80a1e1	-0.25123504
141	0xbe138d4b	-0.14409368
142	0x3de5e05d	0.112244345
143	0xbe8607cb	-0.2617782
144	0x3e003e9c	0.12523884
145	0xbe71c286	-0.23609361
146	0xbe1f8015	-0.15576203
147	0x3db7e4e3	0.089792036
148	0xbdac1ed8	-0.084043205
149	0x3e994ef1	0.2994304
150	0xbe80a373	-0.25124702
151	0xbeb32a15	-0.34993044
152	0x3c9390d0	0.018013388
153	0xbd6fe215	-0.058565218
154	0x3e5e1072	0.21685961
155	0x3ece9fb3	0.40356216
156	0x3e8ca0b0	0.27466345
157	0xbcdefeb5	-0.027221063
158	0xbddf9f56	-0.10919063
159	0xbe86ab33	-0.2630249
160	0x3be3bf1b	0.006950272
161	0xbbc00682	-0.005860151
162	0xbd5958c0	-0.053063154
163	0x3e141c97	0.14464031
164	0xbd700fdf	-0.058608886
165	0xbdb515ef	-0.08842074
166	0xbd497c85	-0.049191017
167	0xbe5d803f	-0.21630953
168	0x3ccba1d8	0.024857447
169	0x3db082ae	0.08618675
170	0xbe5e1804	-0.21688849
171	0xbdda08b6	-0.10646193
172	0x3e1c78a1	0.15280391
173	0x3d19e341	0.03757024
174	0xbde2eea5	-0.11080674
175	0xbdb17f61	-0.08666874
176	0x3bca8472	0.0061803395
177	0xbc2ad1dd	-0.010426012
178	0xbd10b31a	-0.035327055
179	0xbc985945	-0.018597255
180	0x3e91d4c4	0.2848264
181	0xbe02339d	-0.12715001
182	0xbcc26a11	-0.023732217
183	0xbd3cb91f	-0.046074983
184	0xbd74e607	-0.059789684
185	0x3dd2ec9c	0.10299036
186	0x3e3d3931	0.18478848
187	0xbd160748	-0.036628038
188	0xbd76c538	-0.060246676
189	0xbd201173	-0.03907914
190	0xbe2394b8	-0.159747
191	0xbe4191b9	-0.18903245
192	0x3e5e0e0d	0.21685047
193	0x3e4666a6	0.19375095
194	0xbc791650	-0.015203074
195	0x3e0ee9e1	0.13956405
196	0xbdc018cb	-0.09379729
197	0x3e001345	0.1250735
198	0xbdaf8793	-0.085707806
199	0x3d8d9c5a	0.06914587
200	0x3db2b3ee	0.08725725
201	0xbb49f25a	-0.0030814619
202	0x3e24b966	0.16086349
203	0x3eb6e30a	0.35720092
204	0x3dbf75a9	0.09348614
205	0xbde3a7d0	-0.11115992
206	0xbde4de2f	-0.11175191
207	0x3db50760	0.08839297
208	0x3cae7bbc	0.021299236
209	0xbda46668	-0.08027345
210	0xbe4ac4cc	-0.19801635
211	0x3d9bd66d	0.07609258
212	0xbe5314f0	-0.20613456
213	0x3dc3f02f	0.09567296
214	0x3e6fd22c	0.23420018
215	0xbc8e71c6	-0.017388236
216	0xbe8aac38	-0.27084517
217	0x3dcab5b5	0.09897939
218	0x3e45e742	0.19326499
219	0xbe878857	-0.26471207
220	0x3e8503db	0.25979504
221	0xbdb4282a	-0.08796723
222	0x3dd4143f	0.10355424
223	0xbe8ca3f8	-0.27468848
224	0x3e12b246	0.14325818
225	0xbd93ccf2	-0.072168246
226	0x3d48d1d6	0.04902824
227	0xbc2f622d	-0.010704559
228	0x3d7a5908	0.061120063
229	0xbe1ba2b2	-0.15198782
230	0x3daa089c	0.08302423
231	0x3deeed49	0.11666352
232	0xbd326074	-0.043549016
233	0xbea783ee	-0.32717842
234	0x3dccd3d0	0.100013375
235	0xbdf6759e	-0.120341524
236	0x3e8c3466	0.27383727
237	0xbe5a80d5	-0.21338208
238	0x3deaf341	0.11472178
239	0xbe913b26	-0.2836544
240	0x3d04ca8d	0.03241973
241	0xbe9d5b69	-0.30733803
242	0x3dfa5252	0.122227326
243	0xbe417907	-0.18893825
244	0xbec04596	-0.3755309
245	0xbe01400f	-0.12622093
246	0x3e11cd90	0.14238572
247	0xbdf40a49	-0.11916024
248	0xbe58ab8d	-0.21159191
249	0xbd9a7434	-0.07541695
250	0xbf401195	-0.7502683
251	0x3e5fa204	0.21839148
252	0xbf0b40a3	-0.543955
253	0xbe106a08	-0.14102948
254	0x3e13cf68	0.14434588
255	0x3ee3187c	0.44354618

context_transformer_0/kq_shared_bottleneck/norm/mul;context_transformer_0/kq_shared_bottleneck/norm/add;context_transformer_0/attention/key/einsum/Einsum;context_transformer_0/attention/key/add;context_transformer_0/attention/value/einsum/Einsum;context_transformer_0/attention/key/add/ReadVariableOp/resource f4 [32]
0	0xbed3adad	-0.41343442
1	0xbf18e115	-0.5971845
2	0xbe59303a	-0.21209803
3	0xbf04f240	-0.51932144
4	0x3dc36708	0.09541136
5	0x3d775512	0.060383864
6	0x3dbcad37	0.092127256
7	0xbe9c98dc	-0.30585372
8	0xbf26da02	-0.65176404
9	0x3f0fc585	0.56160766
10	0xbe554f79	-0.20831098
11	0x3f0a2d9b	0.5397584
12	0xbec75f64	-0.38939965
13	0xbf13880d	-0.5762947
14	0xbff02678	-1.876174
15	0xbe3abc6a	-0.18235937
16	0xbf15d42a	-0.5852686
17	0xbf05a959	-0.5221153
18	0x3f505027	0.813723
19	0xbe5179b2	-0.2045658
20	0x3e942d06	0.289406
21	0x3f258071	0.6464911
22	0x3f446114	0.7671063
23	0x3ef71864	0.48260796
24	0x3e5da253	0.21643953
25	0x3d8d137f	0.06888484
26	0xbe86dd4c	-0.2634071
27	0x3f35b9a2	0.7098638
28	0xbf504c3e	-0.81366336
29	0xbf1e06de	-0.6172923
30	0xbd5ea19d	-0.054353345
31	0xbf12f7a7	-0.5740914

context_transformer_0/kq_shared_bottleneck/norm/mul;context_transformer_0/kq_shared_bottleneck/norm/add;context_transformer_0/attention/key/einsum/Einsum;context_transformer_0/attention/key/add;context_transformer_0/attention/value/einsum/Einsum;context_transformer_0/attention/key/add/ReadVariableOp/resource1 f4 [32, 32]
0	0xbe8c359b	-0.27384648
1	0x3de18633	0.110119246
2	0xbe80b73c	-0.25139797
3	0xbdd3531b	-0.103185855
4	0xbdbd9db4	-0.09258595
5	0xbc0b6a4e	-0.008509232
6	0x3e8b3ae6	0.27193373
7	0xbdf3f36a	-0.11911662
8	0xbdb14cb2	-0.086572066
9	0x3d04c425	0.03241362
10	0x3e0ff57c	0.14058489
11	0xbe5a1507	-0.21297084
12	0xbe2a4fba	-0.16631976
13	0x3da2ce49	0.07949502
14	0x3da00641	0.07813693
15	0x3b84d02b	0.004053136
16	0x3e78322f	0.24237894
17	0x3dce46b2	0.10072078
18	0xbdc74ce4	-0.097314626
19	0xbd990d28	-0.074732125
20	0x3e21c2c0	0.15796947
21	0x3f418302	0.7559053
22	0x3bd834f7	0.006598111
23	0x3d86d134	0.06582871
24	0x3eab349c	0.33438575
25	0x3ed8b594	0.42326033
26	0xbe1c2e8b	-0.1525213
27	0xbd955171	-0.07290924
28	0xbd25302a	-0.040329136
29	0x3c7b9f61	0.015357823
30	0x3dea6b39	0.11446232
31	0x3ab7ca06	0.0014022
32	0xbebe41b2	-0.37159497
33	0xbda0fe0d	-0.07860956
34	0x3e92ad44	0.28647816
35	0x3c9a8c47	0.018865718
36	0xbe095c04	-0.13414007
37	0xbdefcb92	-0.1170875
38	0x3e4b867e	0.19875523
39	0xbe4f193e	-0.20224473
40	0x3e1c2d5e	0.15251681
41	0x3e1e5b18	0.15464437
42	0x3e120fa7	0.14263783
43	0xbdcc0719	-0.09962291
44	0xbc3cdc15	-0.011527081
45	0x3e8c7a0a	0.27436858
46	0x3e6af04d	0.2294323
47	0xbc0fc592	-0.008775132
48	0x3e7cd318	0.24689901
49	0x3e33c18e	0.17554304
50	0xbe356462	-0.17714074
51	0xbe559961	-0.2085929
52	0x3e769829	0.24081482
53	0x3f03b4a6	0.5144752
54	0xbe2775a2	-0.16353467
55	0x3df465db	0.1193349
56	0x3e2d64bc	0.16932958
57	0x3ec7d0e6	0.39026564
58	0xbe7d9d11	-0.24766947
59	0xbdf48123	-0.119386934
60	0x3d00a09d	0.031403173
61	0xbe54e6e4	-0.20791203
62	0x3e907831	0.282167
63	0xbe393a11	-0.18088557
64	0xbe1f7cf2	-0.15575007
65	0x3dc9305f	0.09823679
66	0xbda3e135	-0.08001939
67	0xbd8e1ea5	-0.06939439
68	0xbb8845e5	-0.0041587227
69	0x3cfced5e	0.030874904
70	0x3e812516	0.25223607
71	0x3d19b299	0.03752384
72	0xbd73ba58	-0.059503883
73	0xbd3e4a79	-0.04645774
74	0xbdbea361	-0.09308506
75	0x3c984555	0.018587748
76	0xbe497b2c	-0.19675893
77	0x3d61c376	0.055118047
78	0x3d25cdba	0.0404794
79	0xbda504c0	-0.080575466
80	0x3e3c8c61	0.18412925
81	0x3e2c48a9	0.16824593
82	0xbe134d8b	-0.14385049
83	0x3e0762aa	0.13221231
84	0xbddcbd5f	-0.10778307
85	0x3f157221	0.5837727
86	0x3e0ac7ac	0.13552731
87	0xbd049e36	-0.032377444
88	0x3c1b897e	0.00949323
89	0x3ec6d8e3	0.38837346
90	0xbdbab3f6	-0.09116356
91	0x3d88786c	0.06663594
92	0xbc571923	-0.013128552
93	0x3cd753e1	0.026285114
94	0x3c98ca7d	0.018651241
95	0x3c2b28e6	0.010446763
96	0x3cf1e9e7	0.029530479
97	0x3e113984	0.14182097
98	0xbf10e0a2	-0.5659276
99	0xbdd7a4c7	-0.10529476
100	0xbdab7336	-0.08371584
101	0x3e131e4e	0.14367029
102	0x3e9518c6	0.29120463
103	0xbe154e4d	-0.1458065
104	0xbe01a130	-0.12659144
105	0xbdff3ddd	-0.12462971
106	0x3e64453e	0.22292039
107	0xbdda9a71	-0.106739886
108	0xbe947ed2	-0.29003006
109	0x3cc10c70	0.023565501
110	0xbcba5a41	-0.022748115
111	0xbae4ce88	-0.0017456571
112	0x3e8a9828	0.2706921
113	0x3dfc048c	0.12305555
114	0xbdce9706	-0.10087399
115	0x3db76c01	0.08956147
116	0x3e8ff338	0.2811525
117	0x3f4e318e	0.80544364
118	0x3de0bed4	0.109738976
119	0x3dbb3c27	0.091423325
120	0x3e756fe6	0.23968467
121	0x3f00bae7	0.5028519
122	0xbd3fcfa3	-0.046828877
123	0xbd57bd7e	-0.05267095
124	0x3e0009b6	0.12503704
125	0x3e1cc4a3	0.15309386
126	0x3d416fa7	0.04722562
127	0x3debdb81	0.115164764
128	0x3d14d217	0.03633317
129	0x3e20457b	0.15651505
130	0x3e86158e	0.2618832
131	0xbe00843f	-0.12550448
132	0x3d82b09a	0.0638134
133	0x3ec30b30	0.38094473
134	0x3e365ddd	0.17809244
135	0x3f0f3ae3	0.5594923
136	0xbe05ace6	-0.13054237
137	0xbe971c2f	-0.2951369
138	0xbf2ba031	-0.6704131
139	0x3d335527	0.04378238
140	0x3dd27976	0.10277073
141	0x3d9947ad	0.07484374
142	0xbdff7b2a	-0.124746636
143	0xbdc69620	-0.09696603
144	0x3ed7882d	0.4209608
145	0x3e082c46	0.13298139
146	0x3e628cd5	0.22124036
147	0x3e10d01c	0.14141887
148	0xbe68acdf	-0.22722195
149	0x3edb187b	0.42792115
150	0xbc178e7a	-0.009250278
151	0xbd84098c	-0.064471334
152	0xbdd6982f	-0.104782455
153	0x3e84761f	0.2587137
154	0xbebbaac9	-0.36653736
155	0xbd29084f	-0.04126769
156	0xbe019e13	-0.12657957
157	0x3d3ab17e	0.045579426
158	0x3ded423d	0.115848996
159	0x3e83cacf	0.25740668
160	0xbed0db3d	-0.40792266
161	0x3e27fd20	0.16405153
162	0x3da9d174	0.08291903
163	0xbd688f1c	-0.056777105
164	0xbd790573	-0.060796212
165	0x3ce6cfdc	0.028175287
166	0x3de4fcec	0.111810535
167	0xbd539a0d	-0.051660586
168	0x3e2c7583	0.16841702
169	0x3ca65909	0.020306127
170	0xbe771664	-0.24129635
171	0xbd55d882	-0.05220843
172	0xbe074f4f	-0.13213848
173	0x3d796e62	0.060896285
174	0x3df0a52e	0.117502555
175	0xbd935a6a	-0.071949795
176	0x3de4d990	0.11174309
177	0xbcaaefd1	-0.020866306
178	0xbe0cf09a	-0.13763657
179	0xbe3f5afe	-0.18687055
180	0x3e2850a3	0.1643701
181	0x3ebf0a0c	0.37312353
182	0xbe0851fb	-0.13312523
183	0xbe2830ec	-0.16424912
184	0xbc0b3e0a	-0.008498678
185	0x3e83dbb7	0.25753567
186	0xbe56009f	-0.20898674
187	0x3d8d23fa	0.068916276
188	0xbe38bac1	-0.18039991
189	0xbdf9bb8c	-0.12193975
190	0x3e31722d	0.17328711
191	0xbd9dc20d	-0.07703028
192	0xbf43c061	-0.7646542
193	0x3f69e712	0.9136821
194	0x3e064c4f	0.13115047
195	0x3dde89a4	0.108660966
196	0x3e1f29e4	0.15543324
197	0xbe3755aa	-0.17903772
198	0xbd4a9151	-0.04945499
199	0xbee43630	-0.44572592
200	0xbdbfa591	-0.09357751
201	0x3e9c7ebe	0.30565447
202	0x3e9ca280	0.30592728
203	0xbed80219	-0.421891
204	0xbe437b41	-0.19089986
205	0xbe375fc7	-0.1790763
206	0xbde87994	-0.11351314
207	0x3b058ab5	0.0020376865
208	0xbed90b7d	-0.42391577
209	0xbf1fb67f	-0.6238784
210	0x3d252566	0.04031887
211	0xbf0a147f	-0.53937525
212	0x3dca397c	0.098742455
213	0xbea2f0be	-0.31824297
214	0xbe042281	-0.12903787
215	0xbdd4fee9	-0.10400183
216	0x3ea23877	0.31683704
217	0xbedc2d62	-0.43003374
218	0x3c02c435	0.00798135
219	0xbc4f991e	-0.012670783
220	0xbe8ddbd0	-0.27706766
221	0xbe7e4d5c	-0.24834198
222	0x3b103a54	0.0022007423
223	0xbe2bdfde	-0.16784617
224	0xbdf5d3d0	-0.12003291
225	0xbe02c9e2	-0.12772325
226	0x3f33b6e9	0.70200974
227	0x3e004b79	0.1252879
228	0xbda6cfb1	-0.08145083
229	0xbda5ae63	-0.08089902
230	0x3da5edb5	0.0810198
231	0x3dae5d49	0.085138865
232	0x3e6d09e3	0.23148303
233	0x3e1db5e7	0.15401421
234	0xbe05e46a	-0.13075414
235	0x3d93d524	0.07218388
236	0x3ea270f2	0.31726795
237	0x3e8c9799	0.2745941
238	0x3e89e131	0.2692962
239	0xbdfec265	-0.124394216
240	0x3cb79cef	0.022413699
241	0x3e5ae372	0.21375826
242	0xbde09c64	-0.10967329
243	0xbe03ff84	-0.1289044
244	0x3cadfd69	0.021239
245	0x3d91e80c	0.071243376
246	0xbe062f08	-0.13103878
247	0x3c36e9a9	0.011164107
248	0xbe044441	-0.12916662
249	0x3e784a9d	0.24247213
250	0xbe070109	-0.13183989
251	0xbe1e1c74	-0.15440542
252	0xbd7a64f9	-0.06113145
253	0xbe1e8155	-0.15479024
254	0x3e8c1fff	0.2736816
255	0xbe6173c6	-0.2201682

context_transformer_0/kq_shared_bottleneck/norm/mul;context_transformer_0/kq_shared_bottleneck/norm/add;context_transformer_0/attention/query/einsum/Einsum;context_transformer_0/attention/query/add;context_transformer_0/attention/value/einsum/Einsum;context_transformer_0/attention/query/add/ReadVariableOp/resource;context_transformer_0/attention/Mul;context_transformer_0/attention/Mul/y f4 [32]
0	0xbe98adaf	-0.2982001
1	0xbdbc6746	-0.09199385
2	0xbde0ca81	-0.109761246
3	0xbf0260d2	-0.50928986
4	0xbc3f7a51	-0.011686877
5	0xbc8640d7	-0.01638834
6	0xbc30df05	-0.0107953595
7	0x3e3b2920	0.18277407
8	0x3eb2c6f5	0.34917417
9	0x3e0d7f1a	0.13818017
10	0x3deec22e	0.116581306
11	0x3e51ed92	0.20500782
12	0x3e278b18	0.16361654
13	0x3c65df72	0.014030324
14	0x3f5b0434	0.8555329
15	0xbe168012	-0.14697292
16	0xbec57432	-0.38565212
17	0xbcdee2e0	-0.027207792
18	0xbe843f0f	-0.2582936
19	0xbdafd0b2	-0.08584727
20	0x3ea9ec49	0.33188084
21	0x3f16f2ff	0.5896453
22	0x3e7d2e03	0.24724583
23	0xbd7c8220	-0.061647534
24	0xbd69aa22	-0.057047017
25	0x3df78ae8	0.12087041
26	0xbdab1070	-0.083527446
27	0x3f135723	0.57554835
28	0x3df731bf	0.12070035
29	0xba085222	-0.0005200227
30	0xbd26144b	-0.040546697
31	0xbc2e5b9d	-0.0106419595

context_transformer_0/kq_shared_bottleneck/norm/mul;context_transformer_0/kq_shared_bottleneck/norm/add;context_transformer_0/attention/query/einsum/Einsum;context_transformer_0/attention/query/add;context_transformer_0/attention/value/einsum/Einsum;context_transformer_0/attention/query/add/ReadVariableOp/resource;context_transformer_0/attention/Mul;context_transformer_0/attention/Mul/y1 f4 [32, 32]
0	0x3d7274b2	0.05919332
1	0x3ddf75f5	0.109111704
2	0x3cea6c3f	0.028616069
3	0x3b9a3b70	0.0047067925
4	0xbcf3131b	-0.029672196
5	0x3e233ee4	0.1594196
6	0x3b1594f9	0.002282439
7	0x3cbb9260	0.022896945
8	0xbd465644	-0.048422113
9	0xbd9b36af	-0.075787894
10	0x3b9bdcdd	0.0047565536
11	0x3c10559c	0.008809473
12	0x3c8f0c7e	0.017462011
13	0xbb6eb9f1	-0.0036426748
14	0xbe0d4cd7	-0.13798843
15	0xbca25d68	-0.01981993
16	0x3c1e505f	0.009662717
17	0xbca9a1c0	-0.020707011
18	0xbba37555	-0.0049883523
19	0x3cc48c2d	0.023992622
20	0x3d00ac49	0.031414304
21	0x3e0f595e	0.13998935
22	0x3be4b402	0.0069794664
23	0x3c5201b5	0.01281779
24	0xbd4a3c09	-0.04937366
25	0x3db97ddc	0.09057209
26	0xbc428463	-0.011872384
27	0xbb35eaf6	-0.0027758456
28	0x3d1e33fb	0.03862379
29	0x3d24253a	0.040074565
30	0xbda29d63	-0.079401754
31	0x3de6d03d	0.11270187
32	0x3dfdced5	0.12392966
33	0x3e201202	0.1563187
34	0x3d02e0fd	0.031952847
35	0xbc7a6913	-0.015283841
36	0x3cb2a088	0.021805063
37	0x3e2956c6	0.16537008
38	0xbd520f72	-0.05128426
39	0x3d728d7e	0.05921697
40	0xbda85cab	-0.082208
41	0xbdd9f7a1	-0.106429346
42	0xbc776302	-0.015099289
43	0xbc0d4ebc	-0.008624729
44	0xbc9b0824	-0.01892478
45	0xbd8234eb	-0.063577496
46	0xbe3295f1	-0.1744001
47	0x3c0a15cc	0.008428048
48	0xbc90cd72	-0.017676089
49	0xbdc4096b	-0.09572109
50	0x3d4ff1ee	0.05076783
51	0x3d7d6548	0.061864167
52	0xbd2aa8ee	-0.04166501
53	0x3c87e327	0.016587807
54	0x3d1b378b	0.037894767
55	0xbcb223eb	-0.021745643
56	0x3c0ca347	0.00858385
57	0xbda6fab8	-0.081532896
58	0x3da21a93	0.07915225
59	0xbc14ccb9	-0.009082013
60	0x3c07d8a5	0.008291398
61	0x3da49368	0.08035928
62	0xbe09881a	-0.13430825
63	0x3e2273ee	0.15864536
64	0xbd836a2d	-0.06416736
65	0xbd9fe8f4	-0.07808104
66	0x3d127d28	0.03576389
67	0x3ba8667d	0.0051391707
68	0xbc80fe26	-0.015746187
69	0x3e0c41cb	0.13696973
70	0x3d5a596c	0.053307936
71	0x3dd2a9ae	0.1028627
72	0x3c34b924	0.011030469
73	0xbd5e4c66	-0.054272078
74	0xbce0b255	-0.027428785
75	0xbd145889	-0.036217246
76	0x3d4d8f86	0.050185703
77	0x3cc46535	0.02397404
78	0xbd0daedb	-0.034590583
79	0xbc83ac6a	-0.016073424
80	0x3b8fc628	0.0043876357
81	0x3d27bc03	0.040950786
82	0x3d157c4d	0.036495496
83	0x3cca949a	0.024729062
84	0xbc971dd3	-0.018446838
85	0x3dfd5b9d	0.123709895
86	0x3ceba431	0.028764816
87	0xbcd8272a	-0.026385862
88	0xbc15415c	-0.009109821
89	0x3dd25a57	0.10271137
90	0x3c711060	0.014713377
91	0x3bbf3901	0.005835653
92	0xbcd71fb9	-0.026260244
93	0x3d25563f	0.040365454
94	0xbcbd7f11	-0.023131879
95	0x3dccf2cc	0.10007247
96	0xbcb6820d	-0.02227881
97	0xbbb9959f	-0.005663588
98	0x3cbc2e21	0.022971215
99	0x3d7fc854	0.062446907
100	0xbd3d7ba3	-0.046260487
101	0x3d70eb40	0.058818102
102	0x3ca4d7db	0.02012246
103	0x3d9867ca	0.07441671
104	0xbda22269	-0.079167195
105	0xbd145c41	-0.036220793
106	0x3d1d8ffd	0.038467396
107	0xbd121130	-0.035660923
108	0x3d23b273	0.039965104
109	0x3ce619f7	0.028088553
110	0xbda301a6	-0.07959299
111	0xbdbb1f7c	-0.091368645
112	0x3d573a2c	0.05254571
113	0x3dcfd680	0.101483345
114	0xbd3568d3	-0.04428942
115	0x3dc1f7e1	0.09471107
116	0x3bf63299	0.007513356
117	0x3e564486	0.20924577
118	0x3cf9e843	0.030506259
119	0x3d6da941	0.05802274
120	0xbdcea586	-0.10090165
121	0x3e6b9998	0.2300781
122	0x3d2356d6	0.039877735
123	0xbcf53800	-0.02993393
124	0x3d94c0b3	0.07263317
125	0x3d6df308	0.0580931
126	0xbd486477	-0.048923936
127	0x3d79506c	0.060867712
128	0xbdcf0d7a	-0.10109992
129	0xbd12e0c2	-0.035858877
130	0x3df259c8	0.11833531
131	0xbd329c09	-0.043605838
132	0xbac6cf74	-0.0015168027
133	0x3e23169d	0.15926595
134	0x3e1ac56a	0.1511437
135	0x3dd35320	0.10318589
136	0xbc51074e	-0.012758089
137	0xbd618d65	-0.055066485
138	0xbd40ed90	-0.047101557
139	0xbd7be0ef	-0.06149381
140	0xbcae20b9	-0.021255838
141	0x3d4c19ba	0.049829222
142	0x3b2e0463	0.0026552908
143	0xbcd82c02	-0.026388172
144	0x3d1ac4c0	0.03778529
145	0x3e0fc718	0.14040792
146	0x3ba3a847	0.0049944255
147	0x3d09a391	0.033603255
148	0xbe359c32	-0.17735365
149	0x3e46ca1a	0.19413033
150	0x3dbb18b3	0.091355704
151	0xbd5e1cb5	-0.054226596
152	0xbd18c4d0	-0.03729707
153	0x3deeab45	0.11653761
154	0xbdada9b1	-0.08479632
155	0x3df47c7a	0.119378045
156	0xbdaa180d	-0.083053686
157	0xbcbf9a1b	-0.023388913
158	0x3cbfc75f	0.023410497
159	0x3dcd399b	0.10020753
160	0x3da29edb	0.079404555
161	0x3dfac725	0.12245015
162	0x3d47f25d	0.04881512
163	0xbd3387f7	-0.043830838
164	0xbba408ac	-0.0050059166
165	0x3e1e4b8c	0.15458506
166	0x3d9edb82	0.077567115
167	0xbd0770e2	-0.033066638
168	0xbc7bb21c	-0.015362289
169	0xbd78e36f	-0.060763773
170	0xbcdfc1cf	-0.027314095
171	0xbd87eb88	-0.06636721
172	0xbcb7d882	-0.022442106
173	0xbcabf313	-0.02098993
174	0xbda55c78	-0.08074278
175	0xbc9406d7	-0.018069668
176	0x3d82c72f	0.063856475
177	0xbd04df18	-0.03243932
178	0x3cf9b9bc	0.030484073
179	0x3d8bfc6f	0.06835257
180	0x3d659033	0.056045722
181	0x3d6b62f8	0.05746743
182	0x3cd84290	0.026398927
183	0xbd27e114	-0.040986136
184	0x3d8b2f10	0.06796086
185	0x3bfb27c3	0.007664652
186	0x3d96b4eb	0.07358726
187	0xbd4ea6f3	-0.050452184
188	0xbcd91e1c	-0.026503615
189	0x3d4274f6	0.047474824
190	0xbd12a3fe	-0.035800926
191	0x3ddc2f72	0.10751237
192	0x3d9a53ec	0.07535538
193	0x3ea1374f	0.3148751
194	0xbc679554	-0.014134724
195	0x3ca463ee	0.020067181
196	0x3d273877	0.040825333
197	0x3b6ca037	0.0036106238
198	0x3cbbe2a5	0.022935221
199	0xbe1b7fb8	-0.1518544
200	0x3c917224	0.017754622
201	0x3c9840b5	0.018585542
202	0x3ce6136d	0.028085435
203	0xbd4e79f2	-0.050409265
204	0xbcaba95a	-0.020954777
205	0xbca48f1e	-0.020087775
206	0xbd0b9b2f	-0.03408354
207	0x3c935764	0.017986007
208	0x3cdf4414	0.027254142
209	0xbe3060d6	-0.1722444
210	0x3c0c2de8	0.008555867
211	0xbe4e41c5	-0.20142277
212	0x3e734263	0.23755793
213	0xbdbe5672	-0.09293832
214	0xbdd9b265	-0.10629729
215	0x3d09b52f	0.033620056
216	0x3e0b74cb	0.13618772
217	0xbde280d4	-0.11059728
218	0xbca7352a	-0.020411093
219	0xbd8f1b88	-0.06987673
220	0x3c8c9fea	0.017166097
221	0xbd315ab6	-0.0432994
222	0x3d861e4e	0.06548749
223	0xbd275ba8	-0.040858895
224	0x3d3ee431	0.04660434
225	0x3d89fb69	0.06737406
226	0x3d54e5d4	0.051976994
227	0xbd2cbb3e	-0.042170756
228	0x3d395dcd	0.04525547
229	0x3e013330	0.12617183
230	0x390a9eeb	0.00013219907
231	0x3dab5073	0.08364954
232	0xbd7448af	-0.05963963
233	0xbdd782a8	-0.105229676
234	0xbb98ae5f	-0.0046594585
235	0x39fb0230	0.0004787608
236	0xbd5f0965	-0.05445232
237	0xbde0cbb9	-0.10976357
238	0xbdf1ca9a	-0.11806221
239	0x3d22d7d7	0.039756622
240	0xbd9444a7	-0.07239657
241	0xbd6a7b2c	-0.057246372
242	0x3dacfbea	0.08446486
243	0x3d9e658a	0.07734211
244	0xbd94b146	-0.07260375
245	0xbd6ffb52	-0.058589287
246	0x3d59e834	0.05319996
247	0xbd91fab5	-0.07127897
248	0x3cc8c03c	0.024505727
249	0xbde93a8a	-0.113881186
250	0x3da57116	0.0807821
251	0x3d2574a8	0.040394455
252	0xbd57cf12	-0.052687712
253	0x3dbd750b	0.0925084
254	0xbe171c0f	-0.14756797
255	0x3e02cb12	0.12772778

context_transformer_0/ffn_layer_0/intermediate_dense/einsum/Einsum;context_transformer_0/ffn_layer_0/intermediate_dense/Relu;context_transformer_0/ffn_layer_0/intermediate_dense/add f4 [32]
0	0xbe0edc1a	-0.1395115
1	0xbee4029e	-0.44533247
2	0xbd9732b1	-0.073827155
3	0xbdb5976a	-0.088667706
4	0xbdd771f7	-0.10519784
5	0x3e2653f7	0.16242968
6	0xbe9eca76	-0.3101384
7	0xbea7dd61	-0.32786086
8	0xbe20cd71	-0.1570337
9	0xbde3e32c	-0.11127314
10	0xbd9e5b85	-0.077323
11	0xbe183b51	-0.14866377
12	0xbe3011ae	-0.17194244
13	0xbe9e76f0	-0.30950117
14	0xbe1b69c2	-0.15177062
15	0xbe1a8af3	-0.15092067
16	0xbe3b1e46	-0.18273267
17	0xbe98ca31	-0.2984176
18	0xbe2636a0	-0.16231775
19	0xbeb15ff8	-0.3464353
20	0x3cd027f1	0.02540967
21	0xbe2faac9	-0.17154993
22	0xbd2520f4	-0.04031463
23	0xbdb422c4	-0.087956935
24	0xbe902892	-0.28155953
25	0xbe4adec7	-0.19811545
26	0xbf0e2a25	-0.5553306
27	0xbebb0864	-0.3652984
28	0xbe53e683	-0.20693402
29	0xbe2fad8e	-0.1715605
30	0xbeb958af	-0.36200473
31	0xbe497d30	-0.19676661

context_transformer_0/attention/norm/mul;context_transformer_0/attention/norm/add;context_transformer_0/ffn_layer_0/intermediate_dense/einsum/Einsum;context_transformer_0/ffn_layer_0/intermediate_dense/Relu;context_transformer_0/ffn_layer_0/intermediate_dense/add f4 [32, 32]
0	0x3e8e455a	0.27787286
1	0xbd043c20	-0.032283902
2	0x3dd06fd0	0.101775765
3	0xbdf41789	-0.119185515
4	0x3e089f9f	0.1334214
5	0x3bbda36f	0.005787305
6	0xbced0364	-0.02893228
7	0x3ec078a7	0.3759205
8	0xbe3acfae	-0.18243286
9	0xbcad33da	-0.021142889
10	0xbdacb8f2	-0.08433713
11	0xbb5b8587	-0.0033496337
12	0xbd8f1765	-0.06986884
13	0xbd1f6f4a	-0.038924493
14	0xbcd0ba31	-0.025479408
15	0xbe98eff9	-0.29870585
16	0xbe1e6c03	-0.1547089
17	0xbdca1fc7	-0.09869342
18	0xbe0f192f	-0.1397445
19	0xbdea1493	-0.114297055
20	0xbdd51b28	-0.1040557
21	0x3e95b0ae	0.29236358
22	0xbc647b27	-0.013945377
23	0xbc09f964	-0.008421276
24	0xbdb4360d	-0.08799372
25	0x3e5a61b3	0.21326332
26	0x3dc01b16	0.09380166
27	0x3df2ca75	0.11855022
28	0x3e006aec	0.12540787
29	0x3e1d48f2	0.15359858
30	0x3c67e88e	0.014154566
31	0x3dfdc448	0.12390953
32	0x3e0691c8	0.13141549
33	0xbdefabb8	-0.117026746
34	0xbed8cc0b	-0.42343172
35	0xbe18d7a5	-0.14926012
36	0x3e06abd8	0.1315149
37	0x3e27dcdc	0.16392845
38	0xbe10688c	-0.14102381
39	0xbdac1f4c	-0.08404407
40	0xbc3d329a	-0.011547709
41	0x3d1eab05	0.038737316
42	0x3e051bd7	0.12998901
43	0xbd635221	-0.055498246
44	0xbe640e89	-0.2227117
45	0xbc94f193	-0.018181598
46	0xbc8af094	-0.01696042
47	0xbe5bf843	-0.21481423
48	0xbe80cf5b	-0.251582
49	0xb9ba15e4	-0.00035492994
50	0x3dd65311	0.104650624
51	0xbe7b8508	-0.24562466
52	0xbd9b10fc	-0.07571599
53	0xbbbaf6a0	-0.0057056695
54	0x3d76de83	0.060270797
55	0xbe315b89	-0.17320074
56	0x3e24c33d	0.16090102
57	0x3e4dfbd7	0.201156
58	0x3c423c67	0.011855221
59	0xbeb1a568	-0.34696507
60	0x3e53db80	0.20689201
61	0xbe9526b5	-0.29131094
62	0xbdf5f1ec	-0.120090336
63	0xbe1e4a27	-0.15457974
64	0x3d15b2f8	0.03654763
65	0x3d92ae38	0.07162136
66	0x3ed8a92c	0.42316568
67	0x3d064b6c	0.03278677
68	0xbe316c75	-0.1732653
69	0x3d91fa1c	0.07127783
70	0xbe2d35ae	-0.16915008
71	0xbd9a4a67	-0.07533722
72	0x3d4c56cb	0.04988746
73	0x3d3ececf	0.046583947
74	0xbe02c6ea	-0.12771192
75	0x3dbd2537	0.09235614
76	0x3a5a8c2b	0.00083369267
77	0xbeafa3f2	-0.34304768
78	0xbdae5303	-0.08511927
79	0xbc91e789	-0.0178106
80	0x3e430828	0.1904608
81	0xbe04446f	-0.1291673
82	0xbd41c5c2	-0.047307737
83	0xbee717bf	-0.45135304
84	0x3e1ba172	0.15198305
85	0x3b79b44e	0.0038101855
86	0xbe33ddd9	-0.17565097
87	0xbe2ab04b	-0.16668813
88	0xbdb38b9d	-0.087668635
89	0x3cdc3d32	0.026884649
90	0x3e9ac896	0.3023116
91	0xbd9ecd89	-0.077540465
92	0x3e597784	0.21236998
93	0x3d58a610	0.052892745
94	0xbd24187d	-0.040062416
95	0x3b465500	0.0030263066
96	0xbcaef96a	-0.021359164
97	0x3dc27404	0.094947845
98	0xbd69172c	-0.056906864
99	0x3e871f86	0.26391238
100	0xbd44d60a	-0.048055686
101	0xbc5d4f68	-0.013507701
102	0x3d6a657c	0.05722569
103	0xbe498035	-0.19677813
104	0xbde87c21	-0.11351801
105	0x3e4ab737	0.19796453
106	0xbdd9a8a6	-0.1062787
107	0xbe1363b1	-0.14393498
108	0xbd012ac6	-0.031534933
109	0xbdcc4b9c	-0.09975359
110	0x3ecb5d09	0.39719418
111	0x3d8701e2	0.06592156
112	0xbbcfd41b	-0.0063424236
113	0xbc139759	-0.009008252
114	0x3c860beb	0.016363105
115	0x3e428f2e	0.18999931
116	0xbc807d36	-0.015684705
117	0x3ee32598	0.4436462
118	0x3ecf6776	0.40508622
119	0xbde2e347	-0.11078506
120	0xbcd32480	-0.02577424
121	0xbe1c9c08	-0.15293896
122	0xbb4f5a56	-0.0031639538
123	0xbd71151c	-0.058858022
124	0x3e851039	0.2598894
125	0xbd3cc4c1	-0.046086077
126	0x3daa8142	0.08325435
127	0x3dace1d9	0.084415145
128	0xbe46aab3	-0.19401054
129	0xbd444c5d	-0.04792439
130	0x3dae620f	0.08514797
131	0x3c207677	0.009793869
132	0xbeaaf4b0	-0.33389807
133	0xbda3c1c1	-0.0799594
134	0x3e2c9f3d	0.1685762
135	0xbe2f2961	-0.17105629
136	0xbe02db4b	-0.12778966
137	0x3d291e10	0.041288435
138	0x3d71701c	0.058944806
139	0x3d59e3ff	0.05319595
140	0x3e6de582	0.23232082
141	0x3dd2dec2	0.10296394
142	0x3d00a4e4	0.031407252
143	0x3e0b0584	0.13576323
144	0x3df96eca	0.121793345
145	0xbd0a9b89	-0.033839736
146	0x3e006174	0.12537175
147	0x3e484f73	0.19561557
148	0x3eb3a967	0.3509018
149	0xbe781402	-0.24226382
150	0xbd8a0432	-0.067390814
151	0xbcaee549	-0.021349566
152	0xbd6cd97a	-0.05782459
153	0xba9badce	-0.0011877359
154	0xbdb04049	-0.086060114
155	0xbc9eab80	-0.019368887
156	0xbcbf1a59	-0.023327993
157	0xbd30c833	-0.043159675
158	0xbdf30e24	-0.118679315
159	0xbed3e1ca	-0.413832
160	0xbec6b60b	-0.38810763
161	0xbe82891a	-0.25495225
162	0x3e9a29ab	0.30109915
163	0x3eea86cc	0.45805967
164	0x3cdcafa6	0.026939224
165	0xbd91a113	-0.071108006
166	0xbd1293cf	-0.035785493
167	0xbd9d5768	-0.07682687
168	0xbd903582	-0.07041456
169	0x3cfd39c9	0.030911343
170	0xbcbe1e5f	-0.023207841
171	0xbe8e8dd4	-0.2784258
172	0x3d62d1b1	0.05537576
173	0xbdf420d4	-0.11920324
174	0x3d95d9c8	0.07316929
175	0xbd53a1f7	-0.051668134
176	0xbdd50922	-0.104021326
177	0xbec59311	-0.38588765
178	0x3eaea237	0.34108135
179	0x3dbd25d0	0.09235728
180	0xbcc05065	-0.023475835
181	0x3e057dc0	0.13036251
182	0xbe789e54	-0.24279147
183	0x3e10f3e4	0.14155537
184	0xbde06199	-0.10956115
185	0x3e4f2599	0.20229186
186	0x3d997599	0.07493133
187	0xbdb2179a	-0.08695908
188	0xbe316698	-0.17324293
189	0x3e21f2d8	0.15815294
190	0x3d4887a7	0.048957493
191	0xbd1efab2	-0.0388133
192	0xbe3999c2	-0.1812506
193	0x3bf0c9ab	0.0073482594
194	0x3cb4eda8	0.02208598
195	0xbe7bc319	-0.24586143
196	0xbe2efc07	-0.17088328
197	0xbe8bf1eb	-0.27333006
198	0x3e03bc8a	0.1286489
199	0xbd787be5	-0.06066503
200	0xbd5e7079	-0.05430648
201	0xbcf8ee77	-0.030387146
202	0xbdc10977	-0.094256334
203	0x3e63fa59	0.22263469
204	0xbd7d7ba9	-0.06188551
205	0xbdcd2d52	-0.1001841
206	0xbd0919e1	-0.033471946
207	0x3e739238	0.23786247
208	0x3c969bde	0.01838487
209	0x3d9aa73b	0.07551428
210	0xbdffdaf3	-0.12492933
211	0x3d9bf769	0.07615549
212	0xbe100905	-0.1406594
213	0x3e0ca9e7	0.13736688
214	0x3d8e98ec	0.06962761
215	0x3d02a749	0.031897817
216	0x3d5c9c04	0.053859726
217	0x3e62f103	0.22162251
218	0x3da4210a	0.08014114
219	0x3e2436ea	0.16036573
220	0xbafd0533	-0.0019303918
221	0x3e864640	0.26225471
222	0xbdb2ef26	-0.0873702
223	0xbe5e88d3	-0.21731882
224	0x3e969152	0.29407746
225	0x3e11ff04	0.14257437
226	0x3db731b7	0.08945029
227	0xbd8acf21	-0.06777788
228	0xbcfbc993	-0.030735767
229	0x3e979468	0.29605412
230	0xbda9ebe2	-0.08296944
231	0xbdf5f1a8	-0.12008983
232	0x3e5286c6	0.20559224
233	0xbecd1e90	-0.4006238
234	0xbe80007e	-0.25000376
235	0xbdc7b193	-0.097506665
236	0x3d468c70	0.048473775
237	0x3d45d1f1	0.04829592
238	0x3db9c665	0.09071044
239	0xbe8b3f34	-0.27196658
240	0xbe3360ae	-0.17517349
241	0xbce395d9	-0.027781414
242	0xbe0b7f73	-0.13622837
243	0x3efad446	0.48990077
244	0x3d1cad60	0.03825128
245	0x3df6adb7	0.12044852
246	0x3d9c64c4	0.07636407
247	0xbe58f3a1	-0.21186687
248	0x3d77a62a	0.0604612
249	0x3de65e0c	0.11248407
250	0xbd412f14	-0.047164038
251	0x3d854bf1	0.06508625
252	0xbd8d66d6	-0.0690438
253	0xbe0ea48f	-0.13929962
254	0xbc83a5b9	-0.016070234
255	0xbe1b2ba2	-0.15153363

context_transformer_0/ffn_layer_1/intermediate_dense/einsum/Einsum;context_transformer_0/ffn_layer_1/intermediate_dense/Relu;context_transformer_0/ffn_layer_1/intermediate_dense/add f4 [32]
0	0xbeaeb65d	-0.34123507
1	0xbe5fba95	-0.21848519
2	0xbe270c4e	-0.16313288
3	0xbe8200bf	-0.25391194
4	0xbee31040	-0.44348335
5	0xbe8ecadb	-0.2788914
6	0xbe87a62e	-0.26493973
7	0xbd0c9b26	-0.03432765
8	0xbe660ad1	-0.22465064
9	0xbde543df	-0.11194586
10	0xbec2c927	-0.38044092
11	0xbe6f24db	-0.23353903
12	0xbe9c9983	-0.3058587
13	0xbe6dd03f	-0.23223971
14	0xbf04f8b6	-0.51942
15	0xbe0bd087	-0.13653766
16	0xbe8d24fc	-0.2756728
17	0xbe4656fd	-0.19369121
18	0xbeb4cad9	-0.3531101
19	0x3dc78467	0.097420506
20	0xbda77dc2	-0.08178283
21	0xbdb16ddb	-0.086635314
22	0xbe9199d8	-0.28437686
23	0xbe892d41	-0.26792338
24	0xbe5f01f1	-0.21778084
25	0xbdc454e7	-0.09586506
26	0xbe63c642	-0.22243598
27	0xbed82322	-0.42214304
28	0xbe82edc3	-0.25572023
29	0xbdf6fb71	-0.120596774
30	0x3d0cde96	0.034391962
31	0xbe772b9a	-0.24137726

context_transformer_0/ffn_layer_0/norm/mul;context_transformer_0/ffn_layer_0/norm/add;context_transformer_0/ffn_layer_1/intermediate_dense/einsum/Einsum;context_transformer_0/ffn_layer_1/intermediate_dense/Relu;context_transformer_0/ffn_layer_1/intermediate_dense/add f4 [32, 32]
0	0x3d49b897	0.049248304
1	0xbe040049	-0.12890734
2	0xbe86c3e8	-0.2632134
3	0x3d9702d0	0.07373583
4	0x3c5897f6	0.013219824
5	0x3e46df8d	0.19421215
6	0xbe84a9e0	-0.25910854
7	0xbe1f54cd	-0.15559693
8	0x3d5834fd	0.05278491
9	0xbdcda555	-0.100413
10	0x3e083395	0.13300927
11	0x3d6b26ae	0.057409935
12	0x3bf36348	0.0074276067
13	0xbd833077	-0.06405728
14	0x3e06dc64	0.1317001
15	0xbe25faa9	-0.162089
16	0xbd6b8d50	-0.057507813
17	0x3e155943	0.14584832
18	0xbe82c24c	-0.25538862
19	0x3bed41e8	0.0072405227
20	0xbea5e193	-0.32398662
21	0xbe63df36	-0.22253117
22	0xbcd7d8ce	-0.026348498
23	0x3d0cbbd9	0.034358833
24	0xbc217d37	-0.009856514
25	0xbdf798da	-0.12089701
26	0x3e1c5117	0.15265308
27	0xbee77c1c	-0.45211875
28	0x3cd52731	0.026019664
29	0x3e49fa9d	0.19724508
30	0xbe0528d9	-0.13003863
31	0xbea2e004	-0.31811535
32	0x3d35e901	0.044411663
33	0x3d85770f	0.06516849
34	0xbd86faa5	-0.065907754
35	0xbe819f03	-0.2531663
36	0x3ec146ea	0.37749416
37	0xbe535d73	-0.20641117
38	0xbe24e4b5	-0.1610287
39	0xbdc0dae2	-0.094167486
40	0x3d7f8ec3	0.062392008
41	0xbe70799e	-0.23483893
42	0xbc891a4f	-0.016736178
43	0xbe6e10a6	-0.23248538
44	0x3e8a1396	0.26968068
45	0xbe3f9fdb	-0.18713324
46	0x3eca2740	0.3948307
47	0xbec13d84	-0.37742245
48	0xbeaca824	-0.3372203
49	0xbe17e22b	-0.1483237
50	0xbe19ab5d	-0.15006776
51	0x3e9b5c5a	0.30343896
52	0xbc58eccf	-0.013240053
53	0xbbefb420	-0.0073151737
54	0x3e4f0125	0.2021528
55	0x3dec9597	0.115519695
56	0x3da2dfab	0.079528175
57	0xbe85d47a	-0.2613867
58	0x3d3e3e34	0.04644604
59	0x3cec4018	0.028839156
60	0xbd8c13bb	-0.06839701
61	0xbc7b97d7	-0.015356026
62	0x3de918a0	0.1138165
63	0xbcf71607	-0.03016187
64	0x3d3ed0a8	0.04658571
65	0xbd89f9bf	-0.067370884
66	0xbea40032	-0.320314
67	0x3e4573bf	0.19282435
68	0xbd142393	-0.03616674
69	0xbe3c3138	-0.1837815
70	0xbe494067	-0.19653474
71	0xbe63154e	-0.22176096
72	0xbda720f7	-0.081605844
73	0xbdc6643d	-0.09687088
74	0xbd44259e	-0.047887437
75	0x3e35eb56	0.17765555
76	0xbe79b6ed	-0.24386187
77	0x3dc9e186	0.09857468
78	0x3e2d6d91	0.16936328
79	0xbe0ed7e7	-0.13949548
80	0xbed2b440	-0.41153145
81	0x3d6220b1	0.05520696
82	0xbd59b76f	-0.05315345
83	0xbcc67b07	-0.024228586
84	0x3de0689b	0.10957452
85	0x3ddb6916	0.10713403
86	0xbe11bf65	-0.14233167
87	0x3d141528	0.03615299
88	0x3dd2cd6c	0.10293087
89	0x3e5b8e55	0.21441014
90	0xbd99272e	-0.07478176
91	0x3e2e5a27	0.17026578
92	0x3d887978	0.06663793
93	0xbd98ea92	-0.07466616
94	0xbe5b3eed	-0.21410723
95	0xbe24e82e	-0.16104195
96	0xbe993bf0	-0.2992854
97	0xbd98aa77	-0.074543886
98	0xbd95abd7	-0.073081665
99	0xbe0335c7	-0.12813483
100	0xbebecf50	-0.37267542
101	0xbd9c9fde	-0.0764768
102	0xbd1475d0	-0.036245167
103	0xbebe2ecc	-0.37145078
104	0x3da401b8	0.0800814
105	0x3e1bc66c	0.1521241
106	0x3e712c9c	0.23552173
107	0xbdf0f514	-0.11765495
108	0x3e2015ac	0.15633267
109	0xbd95a1da	-0.07306261
110	0x3e44df16	0.19225726
111	0x3e0f76cf	0.14010166
112	0xbe145f99	-0.14489593
113	0x3dc397a1	0.09550405
114	0xbce4d80b	-0.027935049
115	0x3e816ceb	0.2527841
116	0x3e0cab82	0.137373
117	0xbc9e908f	-0.01935604
118	0x3bf62304	0.0075114984
119	0xbe897165	-0.26844326
120	0xbe0a0353	-0.1347783
121	0xbe76ae4d	-0.24089928
122	0xbe2df06b	-0.16986243
123	0xbcadf103	-0.021233087
124	0xbc8902e3	-0.01672501
125	0xbdaad9b3	-0.08342304
126	0x3c9d10ab	0.019172987
127	0x3d4a5dd2	0.04940588
128	0xbda40925	-0.08009557
129	0xbd442918	-0.047890753
130	0x3d8c5ce1	0.06853653
131	0x3c5e0597	0.013551137
132	0x3dd2be7b	0.102902375
133	0x3e962bd2	0.29330307
134	0xbdc82ceb	-0.097741924
135	0xbe242dbc	-0.16033071
136	0xbd97070d	-0.07374392
137	0x3d1d931a	0.038470365
138	0x3d181411	0.03712851
139	0x3d40aeef	0.04704183
140	0x3e4734d3	0.19453745
141	0x3da14a1b	0.078754626
142	0x3de874fb	0.11350437
143	0xbb167610	-0.0022958554
144	0xbcd9b020	-0.02657324
145	0xbe13307b	-0.14373963
146	0xbd3f2280	-0.04666376
147	0xbe825433	-0.25454864
148	0xbdefa214	-0.11700836
149	0xbdeb31ba	-0.11484094
150	0xbdb6c013	-0.08923354
151	0xbda93db9	-0.08263726
152	0xbd8ff04f	-0.07028257
153	0xbd4cf2a2	-0.05003608
154	0x3e1a3bd0	0.15061879
155	0xbed8c95b	-0.42341122
156	0x3e9b11ab	0.30286917
157	0xbb7fb4ec	-0.003901775
158	0xbdc00cf3	-0.0937747
159	0xbe5f64e1	-0.21815826
160	0xbe438ca9	-0.19096626
161	0x3e97c3b1	0.29641488
162	0x3ea12621	0.31474403
163	0x3d9c558c	0.07633504
164	0xbcee08a3	-0.029056853
165	0x3d8d7297	0.06906622
166	0x3cb82823	0.022480076
167	0x3da0063a	0.078136876
168	0x3dcb15fa	0.09916301
169	0xbe0dfdfd	-0.1386642
170	0xbc178d10	-0.0092499405
171	0xbeb101f3	-0.345718
172	0xbc594751	-0.013261632
173	0xbccc3aa0	-0.024930298
174	0x3e37f249	0.17963518
175	0xbdaacab3	-0.08339443
176	0xbeb0d738	-0.345392
177	0x3e10cd65	0.14140852
178	0xbe462843	-0.19351296
179	0xbe0a9325	-0.13532694
180	0x3d93855f	0.07203173
181	0x3d597f7a	0.053100087
182	0xbe228225	-0.15869959
183	0x3e55e4df	0.20888089
184	0x3dedf7cf	0.11619531
185	0xbe219e90	-0.15783143
186	0x3d6501f5	0.05591007
187	0xbbd61fb3	-0.0065345406
188	0x3dd2e09c	0.10296747
189	0x3d33a205	0.043855686
190	0x3bc5b62b	0.006033679
191	0xbe12664a	-0.14296833
192	0xbcb93de8	-0.022612527
193	0x3e5351a1	0.20636608
194	0xbe4db3c4	-0.20088106
195	0xbe321152	-0.1738942
196	0x3e5fd93f	0.21860217
197	0xbe3923a5	-0.18080004
198	0xbdedc9a9	-0.11610729
199	0x3e891acd	0.2677826
200	0xbe8191c7	-0.25306532
201	0xbefde902	-0.49591833
202	0xbd3514f6	-0.044209443
203	0xbdbec1a5	-0.093142785
204	0x3dc4667f	0.09589862
205	0x3da054c8	0.07828671
206	0xbe67230f	-0.22571968
207	0x3cb41d95	0.021986762
208	0x3d983ed5	0.07433859
209	0x3d9f3d49	0.07775361
210	0x3df6a0dd	0.12042401
211	0xbe8f9f37	-0.2805116
212	0xbe9d6b76	-0.3074605
213	0x3d55c639	0.052190993
214	0xbce40252	-0.027833138
215	0x3e14c3f6	0.14527878
216	0xbda72e42	-0.0816312
217	0x3d99fe5a	0.07519217
218	0xbd7084b5	-0.05872031
219	0xbcb48ca5	-0.02203972
220	0xbdb103bf	-0.08643293
221	0xbcdcf7e1	-0.026973667
222	0x3e51dc7d	0.20494266
223	0x3dad21a0	0.08453679
224	0xba9d7737	-0.0012013678
225	0x3e98e39a	0.29861146
226	0x3df21694	0.11820713
227	0xbbb77e26	-0.005599755
228	0xbb6d0006	-0.0036163344
229	0x3d9d0238	0.07666439
230	0xbcb6b699	-0.022303866
231	0x3d9e2369	0.07721598
232	0xbdc4713e	-0.09591912
233	0x3e073211	0.13202693
234	0xbe001e7a	-0.12511626
235	0xbe279a00	-0.1636734
236	0x3e0c7ce7	0.13719521
237	0xbdb5e51a	-0.08881588
238	0xbe6a7217	-0.22895084
239	0xbda8bf4f	-0.08239614
240	0x3c16eb15	0.009211321
241	0xbdc5c373	-0.096564196
242	0x3cf5abf5	0.029989222
243	0xbea6a2c1	-0.32546046
244	0x3de8d953	0.11369576
245	0xbd13601d	-0.035980333
246	0x3db2ba9a	0.08726998
247	0x3d2ac653	0.041693043
248	0x3d5e17b4	0.054221824
249	0x3e0a996a	0.13535085
250	0x3df5f6a7	0.12009936
251	0xbe0d571b	-0.1380276
252	0x3ed1e9b4	0.40998614
253	0xbd424fd0	-0.047439396
254	0xbde4922a	-0.11160691
255	0xbda570af	-0.08078133

context_transformer_0/ffn_layer_2/intermediate_dense/einsum/Einsum;context_transformer_0/ffn_layer_2/intermediate_dense/Relu;context_transformer_0/ffn_layer_2/intermediate_dense/add f4 [32]
0	0xbdc64147	-0.096804194
1	0xbd3072d7	-0.04307827
2	0xbe290130	-0.16504359
3	0xbe456dae	-0.1928012
4	0xbdf3890e	-0.118913755
5	0xbe1bc469	-0.15211643
6	0xbe831670	-0.25603056
7	0xbed17d08	-0.40915704
8	0xbdbaff3b	-0.091307126
9	0xbe409b6f	-0.18809293
10	0xbec30e48	-0.38096833
11	0x3e0cdc6e	0.13755962
12	0xbe2d2433	-0.1690834
13	0xbe52c46d	-0.20582743
14	0x3d86ebce	0.06587945
15	0xbed750da	-0.42053872
16	0xbd579aa0	-0.052637696
17	0xbe6583c7	-0.2241355
18	0xbdb45cc5	-0.08806757
19	0xbe312ccb	-0.17302243
20	0xbe35f177	-0.17767893
21	0x3e3b6411	0.18299891
22	0xbebe5822	-0.37176615
23	0xbe8ddba2	-0.2770663
24	0xbe8de0ac	-0.27710474
25	0xbe976d1a	-0.29575425
26	0xbe0feb19	-0.14054526
27	0xbdf12cfb	-0.117761575
28	0xbd7c22f8	-0.061556786
29	0xbe46e18a	-0.19421974
30	0xbc84cd20	-0.016211092
31	0xbe02e7af	-0.12783693

context_transformer_0/ffn_layer_1/norm/mul;context_transformer_0/ffn_layer_1/norm/add;context_transformer_0/ffn_layer_2/intermediate_dense/einsum/Einsum;context_transformer_0/ffn_layer_2/intermediate_dense/Relu;context_transformer_0/ffn_layer_2/intermediate_dense/add f4 [32, 32]
0	0x3d53a5e5	0.05167188
1	0xbbb007f1	-0.0053720404
2	0xbe34a9b1	-0.17642857
3	0x3e798c49	0.24369921
4	0xbe6a34b8	-0.22871673
5	0x3d8306fd	0.06397817
6	0xbeafc638	-0.34330916
7	0x3dbd5bab	0.09246
8	0x3e25a0fb	0.1617469
9	0x3c6f9005	0.014621739
10	0x3d96b21c	0.073581904
11	0xbe724df6	-0.23662552
12	0xbce15f4b	-0.02751126
13	0x3e0edcb1	0.13951375
14	0xbe2546ef	-0.1614034
15	0xbe46e997	-0.19425045
16	0xbe070345	-0.13184841
17	0xbeb64f3f	-0.35607335
18	0x3e2024d2	0.15639046
19	0xbdcae2ae	-0.09906517
20	0x3db949ca	0.09047277
21	0x3e02edc5	0.12786014
22	0xbe145ce9	-0.14488567
23	0x3e155129	0.14581741
24	0xbd576d9a	-0.05259476
25	0xbe4c32d6	-0.19941267
26	0xbde0eee7	-0.10983067
27	0xbdb815fb	-0.089885674
28	0xbde2bfa1	-0.110717066
29	0xbd17c00e	-0.037048392
30	0x3e44e028	0.19226134
31	0xbcd58ac4	-0.026067145
32	0x3b163350	0.0022918768
33	0x3eae6ac0	0.3406582
34	0xbe16dcb2	-0.14732626
35	0x3e6aec7b	0.22941773
36	0x3e3e5b46	0.18589506
37	0x3d1d5829	0.038414154
38	0x3c7f76b6	0.015592268
39	0xbd3a2a76	-0.04545065
40	0xbe56d25e	-0.20978686
41	0xbd696638	-0.05698225
42	0xbe7a1c20	-0.24424791
43	0x3d691346	0.056903146
44	0xbd3f63dc	-0.046726093
45	0xb9ff9224	-0.00048746273
46	0x3e8f23c0	0.27956963
47	0xbd4fa45d	-0.05069386
48	0xbcea020a	-0.028565425
49	0xbe64b35e	-0.22334048
50	0x3b55964b	0.0032590802
51	0x3d878373	0.06616869
52	0xbe415396	-0.18879542
53	0x3e9017c0	0.2814312
54	0x3ecfa45c	0.40555084
55	0xbd9b86d5	-0.075940765
56	0x3e0bc9a7	0.13651143
57	0xbe56085e	-0.2090163
58	0x3dae6ef0	0.085172534
59	0xbc46296c	-0.012094837
60	0x3e197468	0.14985812
61	0xbbd3d079	-0.006464061
62	0x3e778140	0.24170399
63	0xbdacf801	-0.084457405
64	0xbd80e70c	-0.06294069
65	0x3d1507a4	0.03638424
66	0xbebc08bb	-0.3672541
67	0x3dc48872	0.095963374
68	0x3d9f9c4a	0.07793482
69	0xbd5c17ea	-0.053733744
70	0x3df9956c	0.12186703
71	0xbc2d9580	-0.010594726
72	0x3af539ef	0.0018709282
73	0xbd9a711a	-0.07541104
74	0xbdab3852	-0.083603516
75	0x3d9169d0	0.0710026
76	0x3e9c409b	0.3051804
77	0xbe2f18be	-0.17099282
78	0x3c976664	0.01848144
79	0x3e2e2d4d	0.17009468
80	0xbe8f6953	-0.28010044
81	0xbdbdef4d	-0.092741586
82	0x3cac5010	0.02103427
83	0xbe1cc2cb	-0.15308683
84	0x3e5de62b	0.21669833
85	0xbd54bae6	-0.051936053
86	0xbe0e8231	-0.13916852
87	0xbe5b2c37	-0.21403585
88	0xbcd9018a	-0.026489992
89	0x3dda28d9	0.10652322
90	0x3e3aadfe	0.18230435
91	0xbca9ba11	-0.020718606
92	0x3cfcb8f6	0.030849915
93	0x3e67949a	0.22615281
94	0x3e9f65d9	0.3113239
95	0xbd8f927b	-0.07010361
96	0x3e307d7c	0.17235368
97	0xbe2fa084	-0.17151076
98	0xbe39d7fe	-0.181488
99	0xbbb5600b	-0.005535131
100	0xbce20f03	-0.027595049
101	0x3ddcb96e	0.107775554
102	0xbd31be63	-0.043394458
103	0x3d5b4897	0.053536024
104	0x3ddcc42f	0.107796066
105	0xbe766cad	-0.24064894
106	0xbccfd2cb	-0.025369069
107	0x3e12464d	0.1428463
108	0xbe0073b6	-0.1254414
109	0xbdd4f85b	-0.103989325
110	0x3de3b84e	0.11119138
111	0x3e3827ba	0.17983904
112	0xbe378c72	-0.1792467
113	0xbd4c9bee	-0.049953394
114	0x3e3f71e2	0.18695787
115	0xbaaef833	-0.0013349116
116	0x3e6dcbd9	0.23222293
117	0xbe4adb08	-0.19810116
118	0xbea83d6f	-0.3285937
119	0xbb9ff109	-0.0048810286
120	0x3e13d54d	0.14436837
121	0x3cf6fd55	0.030150095
122	0x3c05bcfa	0.008162731
123	0xbdceee53	-0.101040505
124	0xbe11fe93	-0.14257269
125	0xbddfde09	-0.10931022
126	0xbddb4934	-0.10707322
127	0x3e7134f2	0.23555353
128	0xbe70009b	-0.23437731
129	0x3d0622c9	0.032748017
130	0xbdbefb25	-0.09325246
131	0x3cbfb005	0.023399362
132	0x3e8eae2c	0.27867258
133	0xbe063ba4	-0.13108689
134	0x3bc981c0	0.0061495006
135	0xbcf6215e	-0.030045208
136	0xbe1b4609	-0.15163435
137	0xbe2afddd	-0.16698404
138	0x3e061cd7	0.13096939
139	0xbdb5304c	-0.088471025
140	0x3cc1bd55	0.02364985
141	0x3e7f13c1	0.2490988
142	0xbe993f9c	-0.29931343
143	0xbdd8d152	-0.105868
144	0x3dfc82a0	0.12329602
145	0xbc3b8bb1	-0.011446879
146	0xbd5b9495	-0.053608496
147	0xbdb4831d	-0.088140704
148	0xbda1cd7a	-0.0790052
149	0x3dc13696	0.094342396
150	0xbc26a46f	-0.01017104
151	0x3d2898fa	0.041161515
152	0xbd42f18e	-0.047593646
153	0x3e0a97d5	0.13534482
154	0xbb68c1c5	-0.0035515886
155	0x3ba498c1	0.0050230925
156	0x3d6d05c8	0.05786684
157	0xbe27caa9	-0.16385902
158	0x3d716277	0.058931794
159	0xbe266a6a	-0.16251531
160	0x3e428e86	0.18999681
161	0xbd3c5155	-0.045976
162	0xbea2d340	-0.31801796
163	0x3e10af36	0.14129338
164	0x3df95c5b	0.121758185
165	0xbb8c06ba	-0.004273263
166	0x3e09659e	0.1341767
167	0x3df2076f	0.11817824
168	0xbd9a70b3	-0.07541027
169	0x3e4bbffe	0.19897458
170	0xbe2f74a3	-0.17134337
171	0x3c9012bd	0.01758706
172	0xbd7a9bdc	-0.061183795
173	0xbdae6337	-0.085150175
174	0x3e347103	0.17621236
175	0xbde663fd	-0.1124954
176	0xbe35321b	-0.17694895
177	0x3de4d1e1	0.11172844
178	0xbc34d415	-0.011036892
179	0x3d54f945	0.051995534
180	0x3e703535	0.23457797
181	0x3e61eced	0.22063036
182	0xbe050799	-0.1299118
183	0xbc9e2aec	-0.019307576
184	0x3e71c45d	0.23610063
185	0xbd54ed14	-0.051983908
186	0x3e092072	0.13391283
187	0xbdbb3a74	-0.091420084
188	0xbe6df3a7	-0.23237477
189	0x3d8a9ee9	0.06768591
190	0x3e4e5998	0.20151365
191	0x3e430f2b	0.19048755
192	0xbdb6bbf1	-0.08922566
193	0xbd57311f	-0.05253708
194	0xbe3bd146	-0.1834155
195	0xbdf1ae5b	-0.11800834
196	0xbd73af1e	-0.059493177
197	0xbd515a47	-0.051111486
198	0xbe73ce13	-0.2380908
199	0xbe00af60	-0.125669
200	0x3d438f64	0.04774417
201	0x3d0a7b8a	0.033809222
202	0x3e82b780	0.25530624
203	0xbdb57104	-0.08859447
204	0x3d14bb48	0.036311418
205	0xbe7a0223	-0.24414878
206	0xbdfce795	-0.12348858
207	0x3dd2b9fb	0.10289379
208	0xbd1f04cb	-0.03882293
209	0x3ebd07f5	0.36920133
210	0xbd9711d7	-0.073764496
211	0xbe426c17	-0.18986546
212	0xbe30164e	-0.17196009
213	0x3ace5966	0.0015743196
214	0xbd025664	-0.03182067
215	0xbd3bac8c	-0.04581885
216	0x3d42e919	0.04758558
217	0xbdd6a3e7	-0.10480481
218	0xbe8ac326	-0.2710201
219	0xbce826e6	-0.02833886
220	0xbdf29b97	-0.11846083
221	0xbd40b2c2	-0.047045477
222	0xbd8a1909	-0.06743056
223	0xbd13ac5f	-0.036053058
224	0xbe0b0822	-0.13577321
225	0x3e7fac8e	0.24968168
226	0x3e397d67	0.18114243
227	0x3e548117	0.20752369
228	0xbd51ecfd	-0.0512514
229	0xbd3657a6	-0.04451718
230	0x3dfb78cc	0.122788996
231	0xbe16080a	-0.14651504
232	0x3da2a81e	0.07942222
233	0xbe0f1bea	-0.13975492
234	0xbe082261	-0.13294365
235	0x3e8975c2	0.26847655
236	0x3e03de30	0.12877727
237	0x3d4cffaa	0.050048508
238	0x3d1395b9	0.03603146
239	0x3e01a190	0.12659287
240	0x3cb1cbdb	0.021703651
241	0x3d71c00d	0.059021045
242	0xbe86345e	-0.26211828
243	0xbc175c6e	-0.009238346
244	0xbd2d9a95	-0.04238375
245	0x3e9e4a89	0.3091624
246	0xbe3a61d1	-0.18201376
247	0x3dede58c	0.11616048
248	0x3e3913c6	0.18073949
249	0x3d888a40	0.06666994
250	0x3d25a8a9	0.04044405
251	0x3e2fd254	0.17170078
252	0xbe736c8a	-0.23771873
253	0xbe154ebd	-0.14580818
254	0xbde464c2	-0.111520305
255	0xbdc86dd4	-0.09786573

context_transformer_0/ffn_layer_3/intermediate_dense/einsum/Einsum;context_transformer_0/ffn_layer_3/intermediate_dense/Relu;context_transformer_0/ffn_layer_3/intermediate_dense/add f4 [32]
0	0xbe079363	-0.13239817
1	0xbda18376	-0.07886402
2	0xbdc50b7b	-0.0962133
3	0xbd15a9a6	-0.036538742
4	0xbdbe258e	-0.09284507
5	0xbe7d868b	-0.24758355
6	0xbc7c8c30	-0.015414283
7	0xbe0804d9	-0.13283099
8	0xbeaa46e2	-0.33257204
9	0x3c28b551	0.010297135
10	0xbe14ccd9	-0.14531268
11	0xbe37e674	-0.17959005
12	0xbcdbf80e	-0.02685168
13	0xbdc15c01	-0.094413765
14	0xbd7780b2	-0.060425468
15	0xbe9e493a	-0.30915242
16	0xbe1d96e2	-0.15389588
17	0xbe43bf2b	-0.19115894
18	0xbe1cfa38	-0.15329826
19	0xbd9f1686	-0.07767968
20	0xbb894377	-0.0041889506
21	0xbe0b069d	-0.13576742
22	0xbdcf4490	-0.10120499
23	0xbdf22779	-0.11823935
24	0xbe3faa76	-0.1871737
25	0xbe23b954	-0.15988666
26	0xbe940708	-0.28911614
27	0xbdcb7bc0	-0.09935713
28	0xbdda3290	-0.10654175
29	0xbd829287	-0.06375604
30	0xbe287a15	-0.1645282
31	0xbef397c7	-0.47576734
